traning/ielts_model.onnx (onnx, 552568 bytes, 2 tensors)

idfcst f4 [339]
0	0x4042c6d3	3.0433853
1	0x40653966	3.5816283
2	0x405f30ad	3.487346
3	0x407028cd	3.7524903
4	0x406f7a09	3.7418234
5	0x406238e7	3.534723
6	0x40653966	3.5816283
7	0x407c69fd	3.943969
8	0x4075274f	3.8305242
9	0x403fd8ed	2.997615
10	0x406f7a09	3.7418234
11	0x40724bea	3.7858834
12	0x402bb845	2.683122
13	0x4071327e	3.7687068
14	0x407c69fd	3.943969
15	0x3fd8ac72	1.6927626
16	0x3f9452d1	1.1587774
17	0x40830c8e	4.0952826
18	0x4068732e	3.63203
19	0x402835f0	2.628292
20	0x406238e7	3.534723
21	0x403ac56d	2.9183
22	0x402b9662	2.6810536
23	0x4040d7d6	3.0131736
24	0x407028cd	3.7524903
25	0x4004fed3	2.0780532
26	0x403aad9a	2.9168458
27	0x4075274f	3.8305242
28	0x4068732e	3.63203
29	0x406d053e	3.703445
30	0x4018154e	2.3763003
31	0x405e3e31	3.4725459
32	0x401f2dc1	2.4871676
33	0x407028cd	3.7524903
34	0x40375ca4	2.8650293
35	0x40757aa1	3.8356097
36	0x40653966	3.5816283
37	0x40830c8e	4.0952826
38	0x3fb7d2ff	1.4361266
39	0x405e3e31	3.4725459
40	0x4071327e	3.7687068
41	0x405e3e31	3.4725459
42	0x4046ce4f	3.106342
43	0x4016e9c9	2.358019
44	0x4068732e	3.63203
45	0x406d053e	3.703445
46	0x4071327e	3.7687068
47	0x40757aa1	3.8356097
48	0x401f659f	2.4905775
49	0x405f30ad	3.487346
50	0x4022b978	2.54257
51	0x40830c8e	4.0952826
52	0x40653966	3.5816283
53	0x40375ca4	2.8650293
54	0x4068732e	3.63203
55	0x404e764e	3.2259707
56	0x406940e6	3.644586
57	0x407028cd	3.7524903
58	0x403c784b	2.944842
59	0x40757aa1	3.8356097
60	0x4075274f	3.8305242
61	0x40653966	3.5816283
62	0x40394c55	2.895284
63	0x404ad16d	3.1690323
64	0x4071327e	3.7687068
65	0x405e3e31	3.4725459
66	0x405f30ad	3.487346
67	0x40757aa1	3.8356097
68	0x405f30ad	3.487346
69	0x406238e7	3.534723
70	0x4068732e	3.63203
71	0x40757aa1	3.8356097
72	0x406d053e	3.703445
73	0x405f30ad	3.487346
74	0x4016e9c9	2.358019
75	0x405e3e31	3.4725459
76	0x4044561f	3.0677564
77	0x406d053e	3.703445
78	0x40448808	3.0708027
79	0x404a38f5	3.1597264
80	0x406f7a09	3.7418234
81	0x406f7a09	3.7418234
82	0x406238e7	3.534723
83	0x407c69fd	3.943969
84	0x407c69fd	3.943969
85	0x4068732e	3.63203
86	0x40724bea	3.7858834
87	0x40830c8e	4.0952826
88	0x406940e6	3.644586
89	0x406f7a09	3.7418234
90	0x40757aa1	3.8356097
91	0x406f7a09	3.7418234
92	0x405f30ad	3.487346
93	0x406d053e	3.703445
94	0x406940e6	3.644586
95	0x3ff4a7a7	1.9113663
96	0x4068732e	3.63203
97	0x406f7a09	3.7418234
98	0x40724bea	3.7858834
99	0x405e3e31	3.4725459
100	0x4013c4d5	2.3088887
101	0x4068732e	3.63203
102	0x40830c8e	4.0952826
103	0x4042bc06	3.042726
104	0x40375ca4	2.8650293
105	0x406238e7	3.534723
106	0x406238e7	3.534723
107	0x40757aa1	3.8356097
108	0x405f30ad	3.487346
109	0x405f30ad	3.487346
110	0x405f30ad	3.487346
111	0x3fcecb6e	1.6155832
112	0x406940e6	3.644586
113	0x406940e6	3.644586
114	0x400fc64e	2.2464786
115	0x4046117d	3.0948174
116	0x400651c4	2.0987406
117	0x407c69fd	3.943969
118	0x4050bb44	3.2614298
119	0x406940e6	3.644586
120	0x40653966	3.5816283
121	0x406940e6	3.644586
122	0x405f30ad	3.487346
123	0x406f7a09	3.7418234
124	0x40724bea	3.7858834
125	0x405f30ad	3.487346
126	0x406238e7	3.534723
127	0x40653966	3.5816283
128	0x3fdd9fd3	1.73144
129	0x4026f7ee	2.6088824
130	0x40653966	3.5816283
131	0x4071327e	3.7687068
132	0x40757aa1	3.8356097
133	0x3fb982bc	1.4493022
134	0x407028cd	3.7524903
135	0x406f7a09	3.7418234
136	0x401b2529	2.424143
137	0x407028cd	3.7524903
138	0x4075274f	3.8305242
139	0x40757aa1	3.8356097
140	0x4071327e	3.7687068
141	0x407c69fd	3.943969
142	0x405e3e31	3.4725459
143	0x4037ae39	2.8700087
144	0x405f30ad	3.487346
145	0x40830c8e	4.0952826
146	0x406940e6	3.644586
147	0x40653966	3.5816283
148	0x405f30ad	3.487346
149	0x40830c8e	4.0952826
150	0x40724bea	3.7858834
151	0x40757aa1	3.8356097
152	0x3f9ed0c7	1.2407464
153	0x4005b91a	2.0894227
154	0x40653966	3.5816283
155	0x40140091	2.3125346
156	0x4016e9c9	2.358019
157	0x3ff505dc	1.9142413
158	0x405e3e31	3.4725459
159	0x4041464f	3.0199163
160	0x407c69fd	3.943969
161	0x404ad16d	3.1690323
162	0x406238e7	3.534723
163	0x40724bea	3.7858834
164	0x4038dce0	2.8884811
165	0x40437a20	3.054329
166	0x40152699	2.3304808
167	0x407028cd	3.7524903
168	0x40653966	3.5816283
169	0x405f30ad	3.487346
170	0x40757aa1	3.8356097
171	0x4071327e	3.7687068
172	0x407c69fd	3.943969
173	0x4071327e	3.7687068
174	0x40830c8e	4.0952826
175	0x4075274f	3.8305242
176	0x405f30ad	3.487346
177	0x40375ca4	2.8650293
178	0x4049a7ea	3.1508737
179	0x40724bea	3.7858834
180	0x407028cd	3.7524903
181	0x405f30ad	3.487346
182	0x4075274f	3.8305242
183	0x40757aa1	3.8356097
184	0x40375ca4	2.8650293
185	0x4022b978	2.54257
186	0x403dcdb1	2.9656794
187	0x40724bea	3.7858834
188	0x40724bea	3.7858834
189	0x40757aa1	3.8356097
190	0x4068732e	3.63203
191	0x405f30ad	3.487346
192	0x4030c5cc	2.7620726
193	0x3fbcd89d	1.4753605
194	0x4071327e	3.7687068
195	0x405e3e31	3.4725459
196	0x3fb2f168	1.3979921
197	0x4011df88	2.2792683
198	0x405e3e31	3.4725459
199	0x40830c8e	4.0952826
200	0x40830c8e	4.0952826
201	0x4075274f	3.8305242
202	0x405e3e31	3.4725459
203	0x3fd03318	1.6265593
204	0x402bf4af	2.6868093
205	0x402f4ad1	2.7389414
206	0x40375ca4	2.8650293
207	0x40830c8e	4.0952826
208	0x402d774a	2.7104058
209	0x407c69fd	3.943969
210	0x40653966	3.5816283
211	0x40375ca4	2.8650293
212	0x4075274f	3.8305242
213	0x40757aa1	3.8356097
214	0x4071327e	3.7687068
215	0x4075274f	3.8305242
216	0x4071327e	3.7687068
217	0x404e764e	3.2259707
218	0x407c69fd	3.943969
219	0x40375ca4	2.8650293
220	0x407c69fd	3.943969
221	0x4071327e	3.7687068
222	0x4044561f	3.0677564
223	0x406238e7	3.534723
224	0x3ff2749c	1.8941836
225	0x4068732e	3.63203
226	0x4044561f	3.0677564
227	0x403c8217	2.94544
228	0x406238e7	3.534723
229	0x4018d897	2.3882196
230	0x407c69fd	3.943969
231	0x406d053e	3.703445
232	0x40375ca4	2.8650293
233	0x406940e6	3.644586
234	0x406d053e	3.703445
235	0x4002c87a	2.043486
236	0x4006e362	2.1076283
237	0x4071327e	3.7687068
238	0x40375ca4	2.8650293
239	0x4044c53d	3.0745385
240	0x40757aa1	3.8356097
241	0x407028cd	3.7524903
242	0x40007cba	2.0076127
243	0x40375ca4	2.8650293
244	0x407c69fd	3.943969
245	0x402bf4af	2.6868093
246	0x4038dce0	2.8884811
247	0x40724bea	3.7858834
248	0x407c69fd	3.943969
249	0x4075274f	3.8305242
250	0x406238e7	3.534723
251	0x406f7a09	3.7418234
252	0x40757aa1	3.8356097
253	0x40653966	3.5816283
254	0x4044561f	3.0677564
255	0x4007cc16	2.1218314

idfcst1 f4 [5000]
0	0x40ccb39a	6.396924
1	0x408956ff	4.2918696
2	0x4093843e	4.609893
3	0x409eeff9	4.9667935
4	0x40afbe9e	5.4920187
5	0x40d305c6	6.594455
6	0x40c40749	6.1258893
7	0x409246ed	4.571158
8	0x40cc1a7a	6.378232
9	0x40bb0dbe	5.8454275
10	0x40c72bac	6.224081
11	0x40b1e430	5.559105
12	0x40ad63fe	5.418456
13	0x40ca1803	6.315431
14	0x40ae8bc4	5.454561
15	0x40a9d96b	5.3077903
16	0x40d6ee0a	6.7165575
17	0x40c4426f	6.1331096
18	0x40dbdcd8	6.8707085
19	0x40c2ad17	6.083629
20	0x40de6237	6.949489
21	0x40b5c660	5.6804657
22	0x40ca1803	6.315431
23	0x4097aac3	4.739595
24	0x40d03523	6.5064864
25	0x40d4eaa6	6.6536436
26	0x40c4f67c	6.1550884
27	0x409d0b4f	4.9076304
28	0x40e248bd	7.071379
29	0x409fe3f7	4.9965777
30	0x40d61bfa	6.690915
31	0x4092ab23	4.5833907
32	0x408e010a	4.437627
33	0x40bc4b7a	5.8842134
34	0x40d61bfa	6.690915
35	0x40a8d966	5.276538
36	0x40cf3671	6.4753957
37	0x40b6ac13	5.708505
38	0x40b205b1	5.5631948
39	0x40d19589	6.549504
40	0x40c4f67c	6.1550884
41	0x40d2a827	6.5830264
42	0x40c4ba07	6.1477084
43	0x40d3647b	6.6060157
44	0x40b7c075	5.7422433
45	0x40c6eaea	6.216176
46	0x40e1b26c	7.05303
47	0x40a6f02e	5.216819
48	0x40af9f69	5.4882092
49	0x40d9140c	6.783697
50	0x40b3c635	5.617945
51	0x408e010a	4.437627
52	0x40c87761	6.2645726
53	0x40a87530	5.264305
54	0x40e248bd	7.071379
55	0x40c98ac4	6.298189
56	0x4092ea65	4.5911126
57	0x40ab9fe8	5.36327
58	0x40cbcef9	6.369015
59	0x40beee7e	5.966613
60	0x40bbc1cb	5.8674064
61	0x40d19589	6.549504
62	0x40d0e370	6.5277634
63	0x40d2a827	6.5830264
64	0x40a691bf	5.2052913
65	0x40e08dd2	7.017312
66	0x40c40749	6.1258893
67	0x40abd712	5.3700037
68	0x409f7273	4.982721
69	0x40d75920	6.7296295
70	0x4091b2e0	4.5530853
71	0x40ad63fe	5.418456
72	0x40c274ca	6.0767565
73	0x40cf8a76	6.485652
74	0x409f5faf	4.98043
75	0x40bb3a62	5.850877
76	0x40b7e8b6	5.747157
77	0x40af8052	5.484414
78	0x408e4da7	4.446979
79	0x40c62ba7	6.1928287
80	0x40bca891	5.895577
81	0x409ea656	4.9578047
82	0x40dae84a	6.8408556
83	0x40cbcef9	6.369015
84	0x40e11ed0	7.0350113
85	0x40beee7e	5.966613
86	0x408f4335	4.476954
87	0x40b37f96	5.6093245
88	0x40c39241	6.1116033
89	0x408e84d1	4.453713
90	0x40e2e1dd	7.090071
91	0x4096fbd6	4.7182417
92	0x40d75920	6.7296295
93	0x40b2d1a7	5.5880923
94	0x407824e3	3.8772514
95	0x4002acab	2.0417888
96	0x40acb786	5.397403
97	0x40ba8941	5.8292546
98	0x40d08bd3	6.5170684
99	0x3fcbb423	1.5914348
100	0x4080dc02	4.0268564
101	0x40e2e1dd	7.090071
102	0x40cb3a06	6.350833
103	0x40bab52d	5.834616
104	0x40ad2a19	5.411389
105	0x40dbdcd8	6.8707085
106	0x40dd59ef	6.917228
107	0x40caa7bc	6.3329754
108	0x40a34314	5.1019382
109	0x40bcd783	5.9013076
110	0x40b839d2	5.757058
111	0x40b26b0a	5.5755663
112	0x40be27e4	5.9423695
113	0x40d24b96	6.571727
114	0x40c40749	6.1258893
115	0x40943b75	4.632258
116	0x40bc4b7a	5.8842134
117	0x40724091	3.7851908
118	0x40678198	3.6172848
119	0x40a81231	5.2522206
120	0x40c08ac1	6.0169377
121	0x40d08bd3	6.5170684
122	0x406eed67	3.73324
123	0x40dcd8ed	6.90148
124	0x40b95c33	5.792505
125	0x40d4eaa6	6.6536436
126	0x40d9fad2	6.8118677
127	0x40ad63fe	5.418456
128	0x40da70b2	6.8262568
129	0x40c5ece1	6.185166
130	0x409dcd51	4.931313
131	0x40c7aebf	6.2400813
132	0x40d83398	6.756298
133	0x409d748f	4.9204783
134	0x40d61bfa	6.690915
135	0x40d24b96	6.571727
136	0x40ab9fe8	5.36327
137	0x408daa5a	4.427045
138	0x408f0ac0	4.4700623
139	0x40bbc1cb	5.8674064
140	0x406f7a09	3.7418234
141	0x40a3d89d	5.120192
142	0x40935d82	4.6051645
143	0x40dae84a	6.8408556
144	0x40d9140c	6.783697
145	0x40ce3f6d	6.4452424
146	0x4045b6b8	3.0892773
147	0x40595855	3.3960164
148	0x40e11ed0	7.0350113
149	0x40dee9a0	6.9660187
150	0x40cf8a76	6.485652
151	0x4098f57e	4.7799673
152	0x403955a7	2.8958528
153	0x40a1cea7	5.056476
154	0x40bca891	5.895577
155	0x408edddc	4.4645824
156	0x40a93ed9	5.288922
157	0x40d8a30d	6.7699037
158	0x40e2e1dd	7.090071
159	0x40a6061b	5.1882453
160	0x4088af3d	4.2713914
161	0x40b11dfc	5.53491
162	0x40a6061b	5.1882453
163	0x40d13c01	6.5385747
164	0x40c3cc8f	6.1187205
165	0x40e6ba16	7.2102156
166	0x40c53364	6.1625233
167	0x40de6237	6.949489
168	0x40ab691c	5.3565807
169	0x40cc1a7a	6.378232
170	0x40dee9a0	6.9660187
171	0x40c62ba7	6.1928287
172	0x409b83ec	4.8598537
173	0x40dd59ef	6.917228
174	0x4089e579	4.309262
175	0x40adbb9c	5.4291515
176	0x408fcc50	4.4936905
177	0x40bd06bb	5.9070716
178	0x40bdf6fb	5.936399
179	0x40bae157	5.8400073
180	0x40ca5f8f	6.324165
181	0x408555a9	4.1667066
182	0x40861f87	4.1913486
183	0x40a737ba	5.2255526
184	0x40bdf6fb	5.936399
185	0x407824e3	3.8772514
186	0x40bb9468	5.861866
187	0x40cd0140	6.4064026
188	0x40d9869f	6.7976832
189	0x40890c03	4.2827163
190	0x40ae4fc0	5.447235
191	0x40caf08d	6.341864
192	0x40b07c67	5.515186
193	0x409cf9e6	4.905505
194	0x40e76a44	7.231722
195	0x40d8a30d	6.7699037
196	0x40b0dcf8	5.5269737
197	0x401aab6f	2.4167135
198	0x40cfdf5b	6.496015
199	0x40f40b45	7.6263757
200	0x40d54f2b	6.665914
201	0x4062536c	3.5363417
202	0x4072f71e	3.7963328
203	0x40836218	4.1057243
204	0x40bfedb7	5.997768
205	0x40ba5d90	5.823921
206	0x4086ee7f	4.2166133
207	0x404f9cd0	3.243946
208	0x40be5917	5.948375
209	0x40e248bd	7.071379
210	0x40df734f	6.9828258
211	0x40d19589	6.549504
212	0x409246ed	4.571158
213	0x40c05613	6.010507
214	0x4064cab2	3.5748715
215	0x40e992be	7.299163
216	0x40b1a196	5.550975
217	0x40ac0e9c	5.3767834
218	0x40cfdf5b	6.496015
219	0x4093b82c	4.616232
220	0x40e41cfb	7.1285377
221	0x40d2a827	6.5830264
222	0x40d61bfa	6.690915
223	0x40d68456	6.7036543
224	0x40841fe1	4.1288915
225	0x40837994	4.108591
226	0x40b9dbdf	5.8080897
227	0x40b7e8b6	5.747157
228	0x3fb3925b	1.4029039
229	0x40d9869f	6.7976832
230	0x4049d216	3.1534476
231	0x405bd33d	3.434768
232	0x407e0b86	3.9694533
233	0x4072a700	3.7914429
234	0x4056ab37	3.3542001
235	0x4083e020	4.121109
236	0x406f188c	3.7358732
237	0x4081506b	4.0410666
238	0x40b6ac13	5.708505
239	0x4044fd14	3.0779467
240	0x40d03523	6.5064864
241	0x3fbccb19	1.474948
242	0x40dc59ea	6.885976
243	0x40d5b4ef	6.6783366
244	0x4096d0af	4.712974
245	0x40d0e370	6.5277634
246	0x4047df0b	3.1229885
247	0x40d4eaa6	6.6536436
248	0x40bd65fd	5.9186997
249	0x40d3c44c	6.617712
250	0x401f8e16	2.4930472
251	0x404d08b4	3.2036562
252	0x40825c8b	4.0737967
253	0x40d5b4ef	6.6783366
254	0x40d6ee0a	6.7165575
255	0x4078a1c4	3.8848734
